Dataset_pth_file/period_lstm_model.pth (torch, 75692 bytes, 5 tensors)

lstm.weight_ih_l0 f4 [256, 5]
00000000: 9518 a73e dfbf 9e3e e489 203e fdeb 823e
00000010: eecf 8a3e 2476 4f3e 0ebc 6a3e a484 2f3e
00000020: af52 9d3e 708d af3e 6eaf b73e ebdd 2b3e
00000030: b514 8f3e e9dd 0d3e a748 fb3d 7f76 903e
00000040: 5c7b b73e 981b 7e3d 3026 333e c6f3 523e
00000050: 4cb4 253e 9b49 a43e ba39 703e fa22 843e
00000060: 7683 7a3e 2e33 c13e b573 633e 1632 323e
00000070: 605d 1a3e d4f3 983e 9be4 223f fe63 913e
00000080: d101 c23d 5b5d 033d 3e6f ac3e 13f4 953e
00000090: 10f2 203e 95b9 9c3e 7619 a93d e33f 823e
000000a0: c999 3b3e e58b 3b3e f6d7 f53d c2cd 8d3e
000000b0: acb3 a63e 06d5 c53e d4df c33e 2f18 2d3e
000000c0: 71e4 f13d 2ffc 993e f3ec a23e 8ee6 a53e
000000d0: 156a 0e3e 9240 7f3e 478f 113e 82de 823e
000000e0: c441 b03e 47e9 443e a99f 793e 2493 5e3e
000000f0: 144e b93e 81df d63d 3433 443e 2e6e ba3d
00000100: 698d 833e eda9 ac3e d392 923e 3e69 623e
00000110: ccd1 123e abee 893e 29ab b93e 333b b73e
00000120: ec8f 293e 1111 923e 0116 353e bfa4 973e
00000130: e42c fa3d 9b2d 5f3e 05da 903e aa4d a43e
00000140: fb36 303d cb91 1c3f 0b27 063e 0721 b93e
00000150: b250 ad3e d0b4 05bb d8c6 0f3f 9e3b 383e
00000160: e402 0e3f 1b9f 923e 65d7 d83e f3a1 0b3e
00000170: b5c8 a43d 8093 b43d 89db a33e d8a8 833e
00000180: ab8f c33e d184 b63d 3dd5 073e 12cf 363e
00000190: a801 b03e 1471 373e bdc1 633e 715b 003e
000001a0: 2aa0 923e a3d4 953e 3077 7c3e 1526 1a3e
000001b0: 7674 c33d 73d6 663e f08d d63e 49e2 483e
000001c0: 8edd 473e 0d44 003e 2c09 553e 3af2 9d3e
000001d0: 5eb0 cf3e 5009 833e 3071 953e 831f 183e
000001e0: b521 9c3e ffa3 a43e 495d a93d 33a7 323e
000001f0: 5206 723e 87df c03e 371f 593e 04b2 593e
00000200: 4b3e 143e e39e dc3d a888 bb3e 5a78 733e
00000210: b1ef 5a3e 8ea2 033e da37 4f3e d983 b93e
00000220: 43ed b43e c079 fb3d 308d 643e f9b4 863e
00000230: 5a90 af3e 17d2 9a3e 2361 983e 4b3c 9d3e
00000240: a2f1 5a3e 180f c73e 10ed 963e 8913 a43e
00000250: eed1 063e 0758 b23e 6f1b 583e 006b b73e
00000260: 6080 1c3e b3b4 443e fb52 af3e 10c0 953e
00000270: 3bdc 5e3e b8df 353e 9413 613e a642 8c3e
00000280: 12da 233e 83e0 a33e b012 963e f392 7b3e
00000290: 2b77 953e b414 c63e e443 353e 7e27 983e
000002a0: 9235 2f3e 9771 a63e e4ea 933e b0b5 0c3e
000002b0: 8628 9d3e 7625 9b3d d403 943e 1a00 e93d
000002c0: 8ca0 3b3e b6e7 7f3e 3eaa 413e 8f52 4f3e
000002d0: 40e9 8a3e 5ee3 ae3e a6de 993e 478e 993e
000002e0: 4736 dc3d 0208 fa3d 65df b73e 8dda 443e
000002f0: 9271 8e3e 7f9a 883e 9c25 853e e7a3 303e
00000300: 3048 643e 92f6 e63d 941f 4f3e 8994 a73e
00000310: cd9e 813e 5ab0 333e 07de 653d e962 f63d
00000320: cdc3 ef3b 0b74 e73e b8ac 703e 7387 f33e
00000330: e0ce 673e 51cd 363e e26a 153e c806 7a3e
00000340: e3b4 203e c2d5 003e e2a6 a53e 09ea 7c3e
00000350: 1ed4 143e 27a9 d43d 835f 983e 4e18 c93e
00000360: c0df cf3e 7a32 c93d 2c52 a53e b3cf 373e
00000370: b209 b23e b2f9 7d3e 061e 913e 9d0e 523e
00000380: 918a 5d3e 7a52 ab3e 1e12 213e eca2 5d3e
00000390: 34ac 6b3e 360e 7d3e 50fb 073f 179b 8f3e
000003a0: fac8 6c3e 36be b83d 0db6 a03e 834f b73e
000003b0: 6e62 4d3e 5b2c 963e 23ea d23d f826 e43d
000003c0: 4485 aa3e 0489 263e 25cb 473e 6d6f 093e
000003d0: d57a 953e 016d a93e c9b5 af3e 5582 843e
000003e0: 4f59 4b3e d761 903e 34b5 9f3e 3aaf 4a3e
000003f0: 844a 8e3e 99cf fc3d 669b 4b3e eb96 343e
0.32635942 0.3100576 0.15677601 0.2557067 0.27111763 0.20259911 0.229233 0.17140442
0.30727145 0.34287596 0.3587603 0.16783874 0.27945486 0.13854183 0.12269717 0.28215405
0.35836303 0.062038034 0.17495036 0.20600805 0.16182059 0.32087407 0.23459521 0.25807935
0.24464211 0.3773436 0.22212107 0.17401919 0.15074682 0.29873526 0.63630074 0.283966
0.09473003 0.032071453 0.3367862 0.29287776 0.1571734 0.30610338 0.082568094 0.25439367
0.18320383 0.18315084 0.12004082 0.27696043 0.32558954 0.38639086 0.38256705 0.16903757
0.1181115 0.30075213 0.31821403 0.32402462 0.13907655 0.24926975 0.14214812 0.25560385
0.34425175 0.19229613 0.24377312 0.21735817 0.3619238 0.10491849 0.19160157 0.09103046
0.25693825 0.33723393 0.28627643 0.22110459 0.14337844 0.26939902 0.36263397 0.35787353
0.16558808 0.28528646 0.17684175 0.2961788 0.122155935 0.21794741 0.28291336 0.32090503
0.043021183 0.6115996 0.13100831 0.3615801 0.33850628 -0.0020401962 0.56162786 0.17991492
0.5547316 0.28637013 0.42351833 0.13635997 0.08046094 0.08817196 0.3200343 0.25714755
0.38195547 0.089120515 0.13264938 0.17852429 0.34376264 0.1791423 0.22241874 0.12534882
0.2863782 0.2926379 0.24654841 0.1505359 0.095436975 0.22542743 0.41905165 0.19617571
0.1951811 0.1252596 0.2080428 0.30848867 0.40564245 0.25593042 0.29187918 0.14855771
0.30494466 0.3215637 0.08269746 0.17446594 0.23635224 0.37670538 0.21203314 0.21259314
0.14476888 0.10772493 0.36627698 0.23776379 0.21380498 0.12854978 0.2023615 0.36233404
0.35337266 0.12279081 0.22319484 0.26309946 0.3428982 0.3023841 0.2976161 0.30710062
0.21381238 0.38878703 0.2947774 0.32046154 0.1316602 0.34832785 0.21104215 0.35823822
0.15283346 0.19209556 0.34242997 0.29248095 0.21763699 0.17761123 0.21980125 0.273946
0.16001156 0.32007226 0.29311132 0.24567775 0.2919248 0.3868767 0.1770168 0.2971763
0.17110279 0.32508537 0.28890145 0.13741183 0.3069498 0.075755045 0.2890917 0.113769725
0.18322963 0.24990734 0.18912598 0.20246337 0.2713108 0.34157842 0.3005268 0.29991361
0.1075254 0.122085586 0.35912624 0.19223996 0.27821022 0.2668037 0.26005256 0.17250024
0.22293162 0.11277498 0.2022689 0.3273051 0.25316468 0.17547742 0.056119945 0.12030584
0.0073170424 0.4520572 0.23503387 0.47564277 0.2263751 0.1785176 0.14591554 0.2441665
0.15694003 0.12581542 0.32353884 0.24698652 0.14534041 0.10383826 0.2976037 0.39276356
0.40600395 0.09824081 0.32289255 0.17950325 0.34773022 0.24802282 0.2834322 0.20513387
0.2163489 0.33461362 0.15729567 0.21644181 0.23014909 0.24712452 0.5311785 0.28048012
0.23123541 0.09020655 0.31388894 0.3580285 0.20057079 0.29330716 0.10298564 0.11140245
0.333048 0.16263205 0.19511087 0.13421412 0.29195276 0.33090976 0.3431838 0.25880685
0.19858287 0.28199646 0.31192935 0.19793406 0.27791226 0.123442836 0.19883499 0.17635696

lstm.weight_hh_l0 f4 [256, 64]
00000000: 6008 5f3e 9ccb 28be 02ea 54be a481 1a3e
00000010: 3de8 61be 6048 903b 0c39 70be b425 21be
00000020: 2671 72be 165c 25be 0855 573e e41d 3f3d
00000030: 557f 803d 3a62 7c3e 6512 09be 23b6 ebbd
00000040: 65e2 5e3e 66da 08bd cbd8 553e 18f0 d43d
00000050: 55a3 083e e924 803d aa18 ef3d c6f5 d0bd
00000060: f58a 26bd 4836 5a3e 7239 f63d 6ec3 74be
00000070: 8fa7 d4bc fae5 00be fe89 833e ad13 d0bc
00000080: 9c45 42be cd14 33bd dc3a 8e3d fb48 883e
00000090: 4117 ad3d a8ae 56be db98 5d3e 926e 6dbe
000000a0: ed32 893e 1010 653e a35f 713e f4bd 2e3e
000000b0: d7c9 57be 743a 72be 91d7 90be aa8b 0fbe
000000c0: cf5a 713e c5a4 21be 26a8 3dbe 6187 853a
000000d0: af1d 533e 9b8d e63d 96bc fd3d 28f6 7abd
000000e0: 0f7e 663e cda8 383e d985 a43c 5992 b13d
000000f0: d191 fb3d c083 c2bd 0f61 253e 2b7c 5b3d
00000100: 1946 7f3e 5a42 11bd 1666 f0bd a39f 6d3e
00000110: 9635 5fbe db21 a33d 1a4d 02be 15a1 0bbe
00000120: 7cd9 25be fdaf 88be c01d 1c3e 0de5 203d
00000130: 67cb 553e 54dc 703e dc96 d3bd 6f56 f9bd
00000140: 741e 28be 6f04 93bd 6b98 823d 1f6d 6f3d
00000150: e71e 573d ad9d 833e 22ba 6c3e 5da8 4ebe
00000160: a280 70bd e559 a33d 65b8 873e 67d1 5abe
00000170: f7c6 8bbe 45bf 3bbe 57af 543e ee9d 88be
00000180: 5a5c 87be 5423 9ebe 868b 693e b5ae 9c3d
00000190: 595a 993d 1eb8 8bbd ce5f 883e 7b55 35be
000001a0: 520c a53d 0faf b83d 1498 653e 68b2 1e3e
000001b0: bfd8 1abe 3cbb 41be 36c1 66be 77b2 8cbd
000001c0: fbb0 283e 5bbc 17be eb76 4bbe 0948 b73d
000001d0: da74 7b3e 66ea 4f3e 2e63 4a3e 92b3 14be
000001e0: a12b 203d f4e6 ea3d 2938 713d e39f ff3d
000001f0: 60eb 343e fe86 febd 2b0d 813e fa00 613d
00000200: a6b1 ff3d a0c3 4dbe 4d4f 23be 15ec 0a3d
00000210: 09d2 03be 2474 203e dec6 3bbe efa5 67be
00000220: f50b 84bd 7dc9 78be 6579 833e 6947 573e
00000230: e147 7a3e 902a b23c 97fc debd 778a 29be
00000240: 5b30 df3d f8b8 a4bd c40f 603e 8add 833e
00000250: 9154 1c3e 6524 513e ad02 583e b433 3abe
00000260: bbb8 f6bd 7f2b db3d 4bba d93d 394f 53bd
00000270: 4a6e 05be 3358 03be bab8 e83d a44e 12be
00000280: b65a 1ebe 6508 71be 701f 6d3e 2bfb 723e
00000290: 5521 0f3e bb20 9bbd 6eb1 093e 806e 85be
000002a0: d6e5 e93d 1d79 8a3d 37da 8f3d b959 aa3d
000002b0: 44cb 84be 2810 81be 2b93 22bd 2957 77be
000002c0: 87b4 0f3e 391a 2abe 4731 35be 1f0a b33d
000002d0: 018a 593d 5747 b63d 6f4e 7b3e a846 6ebc
000002e0: 9171 6f3e 8a77 7d3d 2916 963d be2d 843e
000002f0: f60a 2a3d bc89 7dbe 5718 cf3d d278 823d
00000300: 9abf a43d 3d10 f3bd 9baf 25be bfce 643e
00000310: 72e5 d2bd ce30 f43d 67fb 3dbe 57ce 44be
00000320: 660b 1bbe 7a10 5cbe c57f c83d 9718 b53d
00000330: 9861 3d3e 0a12 253e 58e0 2dbe 02b0 a6bd
00000340: ca62 8dbd d969 f7bc 4f37 b93d 82d9 243e
00000350: 176a 123e 1b32 7b3e 4eae 0b3e 8dbf 72be
00000360: 9d26 03be c523 2d3e a348 443e 4067 69bd
00000370: 0bd7 14be d2d9 09be b8f7 b03d 75d3 56bd
00000380: fba6 82be 5273 f8bd 607e 913d f587 033e
00000390: bf35 5e3e 5b6b 38be c3f0 113e 0ce2 22be
000003a0: 55b0 cd3d 57a2 863e 109f 9f3d f04b 303e
000003b0: d0e7 2ebe 8e07 44be 106c 81be 2d19 05be
000003c0: 07ec 683e 487c 38be 6c3c 5fbe 5c0e 3b3e
000003d0: e25d 013e 33fa 173e 2574 873d 730a 30be
000003e0: aa6d c13d 2897 4a3d 9c82 8c3d 2fbf c13d
000003f0: fd91 ed3c 115f 6bbc 3911 793e f549 8e3d
0.21780539 -0.16483921 -0.20792392 0.15088516 -0.22061248 0.004403159 -0.23459262 -0.15737039
-0.23675975 -0.16148409 0.2102853 0.046659365 0.06274287 0.24646845 -0.13385923 -0.11509349
0.2176605 -0.033411406 0.20883481 0.10397357 0.13343556 0.0625704 0.11674626 -0.102031276
-0.040659864 0.21309769 0.120226756 -0.23902676 -0.025958804 -0.12587729 0.25691217 -0.025400007
-0.18971866 -0.04372101 0.0694482 0.2661818 0.08451701 -0.20965064 0.21640341 -0.2318671
0.26796666 0.22369409 0.23571639 0.17064649 -0.2107309 -0.2365511 -0.28289464 -0.14018121
0.23569797 -0.15785511 -0.18521175 0.0010187441 0.20616792 0.11257478 0.123894855 -0.06126991
0.22509025 0.18033142 0.020083355 0.08670492 0.12283672 -0.094977856 0.16150306 0.053585213
0.24929084 -0.03546367 -0.11738221 0.23205428 -0.21797785 0.07965442 -0.12724724 -0.13635667
-0.16196245 -0.26696768 0.15245724 0.03928094 0.20878373 0.23521549 -0.103315085 -0.12174689
-0.16417867 -0.0717858 0.06376728 0.058453675 0.052519705 0.25706235 0.23117879 -0.20181413
-0.058716424 0.079761304 0.2650787 -0.21368943 -0.27300236 -0.18334682 0.20770012 -0.2668299
-0.26437646 -0.30886328 0.2280713 0.0765051 0.074879356 -0.06822227 0.26635593 -0.1770839
0.080589905 0.09017765 0.22421294 0.15497744 -0.15121745 -0.1891908 -0.22534642 -0.06869977
0.16473763 -0.14817946 -0.19869582 0.089492865 0.24556294 0.2030426 0.19764397 -0.14521626
0.039104108 0.11469832 0.05889145 0.12481668 0.17667913 -0.124280915 0.2520536 0.054932572
0.124850556 -0.20094156 -0.1594822 0.03391655 -0.12873091 0.15669304 -0.1833758 -0.22621892
-0.06447593 -0.24295612 0.25678554 0.21023335 0.24441482 0.021748811 -0.108880214 -0.16556726
0.10897895 -0.080430925 0.21881014 0.25754958 0.15266635 0.2042404 0.2109477 -0.18183786
-0.12046953 0.107016556 0.10631236 -0.051589224 -0.13030353 -0.12826614 0.11363359 -0.14287812
-0.15464291 -0.23538359 0.23156524 0.23728625 0.13977559 -0.07574602 0.1344659 -0.26060867
0.11420791 0.06761382 0.07024043 0.083178945 -0.2593633 -0.2520764 -0.03969113 -0.24154343
0.1403371 -0.16611566 -0.17694579 0.08742165 0.053110126 0.08900326 0.24541639 -0.014543213
0.23383166 0.06188158 0.073284455 0.2581615 0.04151436 -0.24759573 0.10112064 0.06370701
0.080443576 -0.118683316 -0.1618027 0.22344492 -0.102976695 0.11923371 -0.18552934 -0.19219337
-0.15141067 -0.2149066 0.09789995 0.08842581 0.1849426 0.16120163 -0.16980112 -0.081390396
-0.06903608 -0.03020184 0.090437524 0.16098598 0.14298283 0.24530832 0.1364071 -0.23705883
-0.12807699 0.16908176 0.19168334 -0.056983232 -0.14535157 -0.13461998 0.086409986 -0.052447755
-0.2551802 -0.121313706 0.07104182 0.12844832 0.2170019 -0.18009703 0.14252 -0.15906543
0.10043398 0.2629573 0.07794011 0.17216468 -0.17080617 -0.19143507 -0.25277758 -0.12997885
0.22746287 -0.1801616 -0.21800393 0.18267196 0.1263347 0.14841537 0.0661395 -0.17191486
0.09444745 0.04946056 0.06860849 0.094602935 0.029000277 -0.014365927 0.24322976 0.069477

lstm.bias_ih_l0 f4 [256]
00000000: e533 263e 450d 253e 1ddf 2e3e 023f 8d3d
00000010: 27f5 913d ea42 fc3d 9ee1 8f3d 9162 893e
00000020: 93b7 c23d 682b c53d 9339 403d 0334 4b3e
00000030: 316c 5a3e a16f 653e b8f8 fa3d dac8 e63d
00000040: 7303 8b3e 4023 973e eeaf 853e 5215 0e3e
00000050: 45ab b83d 953d 713e 21da 263e 7e71 823e
00000060: 2938 883e 9363 523e 0d0d 343e 838f 4d3d
00000070: 7689 5f3e b96b c23d e5df 183e 6bae 023e
00000080: 01dd 593e 1b75 82bc 835d 7b3d e1a7 163e
00000090: 91bb c83d 76e5 6c3e 4b9e 163e 7e79 103e
000000a0: 2902 933e 4666 673e c551 143d 6268 533d
000000b0: fd87 653e e893 573e d235 0cbd 0644 863e
000000c0: aa4c b53d ec86 493e c002 533e d89c 6b3e
000000d0: 18ca 553e 0f60 833e c507 fe3d 624a d13e
000000e0: 70a2 323e 3ad0 5d3e b5d5 253e 5481 1b3e
000000f0: bd72 123e 4d87 953e 2e6b 953e 3afd c13d
00000100: 9240 b1bb 208b dc3d 56d1 e63d bebf db3d
00000110: c186 113e 14e9 ef3d 50d0 37be b617 d03d
00000120: f32f 5f3e b0b6 fe3d 0644 413e de97 5f3e
00000130: 74dc fa3c 7749 663e b7eb 473e ca09 e53d
00000140: 1780 f33d d581 83ba e11e bd3d d059 523e
00000150: f2c8 3f3e ff74 343e ba07 0a3e 950a 353e
00000160: 8b98 363e 3b99 243e 9a4f 243e 3c8e 713d
00000170: 97b1 283e a555 ee3c 02c1 df3d a063 9dbc
00000180: f11f 973d dd15 99be b32c 6b3e f4d3 c3be
00000190: bde0 123c 1869 733e 0187 313e 1052 293d
000001a0: 878a 5ebd 8e1d 7e3d 7b84 2d3e b31d 863c
000001b0: b968 693e facb da3d 1406 93bd d50e 683e
000001c0: 442f 2e3e 5097 e33d f45f fc3d cb89 973c
000001d0: 8147 8db9 900a 89bc a376 003d e3d5 493b
000001e0: 4586 223e 3fdb 1f3c cf8c 1e3c 939d 513e
000001f0: 87ff 333e bd6f 813e a4e8 603e 1690 083e
00000200: 5d8c 2a3e 8233 a9bd 63c7 b1bd 1aaf 7a3e
00000210: 7359 b6bd 28d5 d13d 7e7f d03d da8d 66be
00000220: d4ba 37be 7923 7abe fad5 b43d 74d2 b23d
00000230: 08bd 013e 33b4 223e b22c 16be bf8c 07bc
00000240: 63ac 713e 9a85 393e 6681 2b3e f702 473e
00000250: 83b7 843c 2fa5 ba3d f790 6abd 93ef 07be
00000260: e2dc 48bd f956 0d3e 4967 3c3e 31cb 5bbd
00000270: cfa3 73be b0a8 2ebe 3d19 2a3e c986 47be
00000280: 7179 56be a0e7 b6bd b440 7b3e 743b cebd
00000290: 25fe 7f3e 0d2c 1abe 83ea 603d 47f2 39be
000002a0: c2c8 03be b311 613e 4690 253e ed61 653c
000002b0: a246 75be e45e e9bd 72bb 613d feff 7ebe
000002c0: d152 d63d f907 5cbe 6a58 64be eb02 763e
000002d0: 6478 843d e6db 44be c3a2 5b3e d498 203e
000002e0: 2013 b73d cc15 4e3e eb8b f43c 833c 6a3e
000002f0: 5919 fb3d 026c 07be c625 6f3e e0f0 a43c
00000300: ccf3 1b3e ba71 823e 1ec9 463e c2c6 c83d
00000310: 8912 c73d 97ab 1e3d 8757 28bd 4935 d93d
00000320: 6f51 393e bec1 fc3c c146 c73d ca97 113c
00000330: f6b7 b6bc 5709 cc3c 24b8 813e 612a 803e
00000340: 5a0d 7f3e 967e dc3e 90a6 443e 66ba 0a3e
00000350: 6972 6a3c 2b98 7b3e 5380 123e daf5 883c
00000360: 4b5f 433d 02d7 473e 4563 c43d 9dc0 c33d
00000370: f14d 113e 8f99 3f3d cf76 5a3e c368 613e
00000380: b7c2 613e 96d2 1cbd e289 753e d59b c53d
00000390: 9a38 003e 553c 393e 9c62 3f3e 6b9e 5b3d
000003a0: 8b97 413e bbf8 573e 6932 f63d d0ee d63d
000003b0: 0a83 d83d 9a52 fa3d bf6c 503e 14fa 1c3e
000003c0: a933 d43d a4ff bf3c 20c7 9a3b 4531 843e
000003d0: 59b2 173e d8ca b03e ee81 373e a0da 9b3e
000003e0: 96c2 6d3e 9b1f 023e d16e 4d3d 7f9c d73d
000003f0: 70d6 7e3e 1edb 713e 8946 253e f84d 6f3e
0.16230734 0.16118343 0.17077298 0.068967834 0.07126837 0.1231745 0.07025455 0.26833013
0.0950767 0.0962742 0.046929907 0.1984406 0.21330334 0.22405864 0.122544706 0.11268778
0.2715107 0.2951908 0.26110786 0.1387532 0.09017042 0.23558648 0.16294147 0.25477213
0.26605347 0.20545797 0.17583103 0.05018569 0.21829781 0.09493203 0.14929159 0.12761848
0.21275713 -0.01592498 0.061368477 0.14712478 0.098014005 0.23134407 0.14708821 0.14108846
0.28712586 0.22597608 0.036210794 0.05161322 0.22415157 0.21052516 -0.034231015 0.26223773
0.08852513 0.19680375 0.20606518 0.2300905 0.20877874 0.25659224 0.12403826 0.40877062
0.17444777 0.21661463 0.16194804 0.15186054 0.14301582 0.2920479 0.29183334 0.09472127
-0.0054093087 0.107687235 0.112703964 0.10729931 0.14211561 0.11714378 -0.17950559 0.101607725
0.21795635 0.124371886 0.18873605 0.21835276 0.030622698 0.22488962 0.19523512 0.11183508
0.118896656 -0.00100332 0.09234405 0.20542073 0.18728998 0.17622755 0.1347951 0.17679818
0.17831628 0.16074078 0.1604599 0.058973536 0.16473995 0.029093573 0.10925485 -0.019212544
0.07379139 -0.29899493 0.2296627 -0.38247645 0.008964715 0.23770559 0.17336656 0.041338027
-0.05433133 0.062039904 0.16945069 0.016371584 0.22793855 0.10683437 -0.07178894 0.22661908
0.17010218 0.11112845 0.12322989 0.018498322 -0.0002694689 -0.01672867 0.03136314 0.0030797652
0.15871532 0.009756862 0.009677126 0.20470266 0.17577945 0.25280562 0.21963745 0.13336214
0.16655107 -0.082617775 -0.08680608 0.24480858 -0.0890378 0.102457345 0.10180567 -0.2251505
-0.17942363 -0.24427594 0.08829875 0.08731547 0.12669766 0.15889053 -0.14665487 -0.008273303
0.23600917 0.18117371 0.1674858 0.19434725 0.016200786 0.091135375 -0.057267155 -0.13274984
-0.049038775 0.13802709 0.18398775 -0.053660575 -0.23792957 -0.17056537 0.1661119 -0.1948501
-0.20944764 -0.08930898 0.24536401 -0.100699335 0.24999292 -0.15055867 0.054911148 -0.18158828
-0.12869552 0.21979408 0.16168317 0.014000398 -0.23952726 -0.11395052 0.055110402 -0.24902341
0.10465015 -0.21487416 -0.22299352 0.2402455 0.06468275 -0.1922451 0.21448807 0.156833
0.08939195 0.20125502 0.029851874 0.22874646 0.12260694 -0.13224795 0.23354253 0.02013439
0.1522972 0.2547739 0.19412658 0.09803535 0.09720332 0.03873786 -0.041099098 0.106058665
0.1809747 0.030854102 0.09730292 0.008886287 -0.022304516 0.024906797 0.253358 0.25032333
0.24907437 0.43065327 0.19204164 0.13547668 0.014309504 0.24569766 0.14306764 0.016718794
0.0476983 0.19515613 0.09589247 0.095582224 0.14189889 0.046777304 0.21334384 0.2201262
0.22046934 -0.038286768 0.2397838 0.09648863 0.12521592 0.18089421 0.1868996 0.053617876
0.18905465 0.21090977 0.12021334 0.104947686 0.10571869 0.12222786 0.20353983 0.15329772
0.10361416 0.023437329 0.0047234446 0.2581884 0.14814128 0.34529757 0.17920658 0.30440235
0.2321876 0.12707369 0.05015451 0.10527896 0.24886489 0.23618743 0.16140188 0.23369586

lstm.bias_hh_l0 f4 [256]
00000000: 93ca 883e 4f85 2d3e c5eb 4f3e ddae 843e
00000010: 484e 8d3e e864 193e da40 913d 7581 803e
00000020: 74e6 6b3e 32fd 883d 2d3e 463e c78a e73d
00000030: 7d16 243e ceff 113e 056b 743e 8aa4 d23d
00000040: 2edc a93e c51f e13e 3572 1a3e 22ea a63d
00000050: e107 833e 5037 963d 5197 2e3e 133c 123e
00000060: afa4 563e 0910 403e c6fd 763e 34a6 9a3d
00000070: 07ee 803e 84cc 593e f3e1 a43e f568 963d
00000080: 0adc 763e fc5b 7c3d c226 753e b3e3 0a3e
00000090: 88bc 3f3e e231 653e 5fab 3f3e 07da 683e
000000a0: af82 873e 1747 713d 5909 273e cb45 843e
000000b0: 4d23 7e3e 95ff 3f3d 37e3 403e 2c8f 2f3e
000000c0: b6dc 843d b6ae 643e 7985 883d 20cd c43d
000000d0: 198d 38bc 989a ab3e ab80 373e 9aa6 ae3e
000000e0: fb46 823e 4ccc 203e 9049 043d 2dae 013e
000000f0: e04a a23e d40d 083e 4c9a e83d b288 9b3d
00000100: 9c07 4a3e bb57 413d d974 4a3e 221d 4c3e
00000110: a386 493e 29eb 423d f7f5 1abe aea3 a73d
00000120: afe7 453e c9ae 8a3d d890 2c3e 7c8a 8a3d
00000130: e4ee 7c3d 5536 a23b 7b80 093e 58d9 033e
00000140: f919 323e 2931 073e a76b a03d 2e40 643e
00000150: 80b8 733e f98b 4d3c 2ef7 c5bd 3e46 a53c
00000160: 15d4 dd3c ca35 993d c943 ba3d 3660 163c
00000170: cb5f 843d 45b2 f83d ca61 1f3e eb0e 9f3d
00000180: 231a 753e 85ad 4ebe 8aed 4c3e 0264 efbe
00000190: ddb9 e53d 423e 2a3e 1b1e 253e fda1 653e
000001a0: 2562 a93d 062c 6b3e f181 203e 4a7d b63c
000001b0: 172e 153d 8f44 6d3e e5c3 ccbd cde3 1b3e
000001c0: dab2 0f3e 2d81 853d f8c0 0d3e 7c3f 5c3e
000001d0: e167 70bb 6e79 cfbd cdbd 013e e2c7 493d
000001e0: 73e1 703e 213e f93d bdae e63d ca4c 613e
000001f0: a751 c33d d901 133e 69be 743e 9012 513e
00000200: 1d8f 4e3e 5b38 51be 6a61 1abe 8637 1e3e
00000210: cdd6 86be b18b 593e abaa 423e fd2e 8abd
00000220: af2e ccbd 76a6 00be ed2f 3c3e 5e80 803e
00000230: 38cd f03d a6c6 d63d f1a1 3cbe 152e 51be
00000240: ed80 3a3e 4484 833e 041a 273e 0508 693e
00000250: ca2a 6a3e 1b38 6b3e fa06 003e 4163 dabd
00000260: 0abb 1bbe aec6 693e 907e 0a3c afc0 86be
00000270: 9147 74be 68e9 44be 76af 0a3e 47d1 6dbe
00000280: cbc2 6dbe 8be7 10bd 6092 013e d0a7 97bd
00000290: 036f 713d b1e9 82be 6203 4a3e 0f3d 15be
000002a0: 62a0 40be 247d e63b 6a0e 54bc 7204 083d
000002b0: ef0f 5bbe ae4e 57be 7760 d33d a444 39be
000002c0: ea72 8b3c c0fd eabc e52b 99bc 5147 083e
000002d0: 6a94 2bbd 47bd 3fbe 4e02 653e b7cb 433e
000002e0: 3792 753e 0f19 fe3d 0ee5 4d3e 1e25 153e
000002f0: 0b11 373e ef74 6dbe e399 e63d a859 2f3e
00000300: a7ab ce3c 445e a03c b4dd 143e db8a 823e
00000310: 6f45 f63c ee09 813e b28e d7b9 e9c6 fd3d
00000320: b078 693e 31bb 293d 279b d03c 1d52 403d
00000330: a513 273e cf73 3c3e dd81 513e 7fe6 533e
00000340: 1da0 c93e bc63 c73e d65f 573e c09e 843d
00000350: 69c5 613c 7996 533e 7bdc 073e 20e1 dc3d
00000360: 940f 773d 1abf c43d fbad 363e 5361 c93c
00000370: d87c 553e fdb8 913b c953 923d 0ba5 3e3e
00000380: ecc5 983d 0163 8cbc 492c 813e c07e 693e
00000390: 49e1 1f3e 8fbd 363d 45ea 603d 0764 023e
000003a0: ae5e 3f3e eb8b 963d 9210 683d ca35 d83d
000003b0: 8eed 6c3e 06fb 483e c00d c03d 3acd 7c3e
000003c0: 05a9 4d3d 8afd 933d cf53 ec3d 1f8e 173d
000003d0: 1027 a13d 5b41 823e 779c 483e cc91 8b3e
000003e0: bf5c d93c c4fa 143e 278d 483e 7a45 593e
000003f0: e66e b63d f562 253e 7b8e 303d 7ab7 9a3d
0.26717052 0.16945384 0.20304783 0.2591466 0.27598786 0.14979899 0.070924476 0.25098768
0.2303713 0.06688918 0.19359656 0.113057666 0.16024204 0.14257738 0.2386895 0.102852896
0.33175796 0.4396955 0.15082629 0.08150126 0.2559195 0.07334769 0.1704991 0.14280729
0.2096126 0.18756117 0.24120244 0.07551232 0.251816 0.21269423 0.32203636 0.07344238
0.24107376 0.06161116 0.23940566 0.13563423 0.18724263 0.2238231 0.18717717 0.22739421
0.2646689 0.058905687 0.1631216 0.25834498 0.24818154 0.0468746 0.18836676 0.1714446
0.0648741 0.22332272 0.06666083 0.09609437 -0.011264109 0.33516383 0.17920177 0.34111482
0.2544478 0.15702933 0.032296717 0.12664099 0.3169775 0.13286525 0.11357555 0.07594432
0.19729465 0.047202807 0.19771136 0.19932988 0.19680266 0.047587547 -0.1513289 0.08185516
0.19326662 0.06771619 0.16852129 0.06764695 0.06175126 0.0049503245 0.13427918 0.12875879
0.1739272 0.13202347 0.07833033 0.22290108 0.2380085 0.012545579 -0.096662864 0.020175096
0.027078668 0.074809626 0.0909496 0.009178212 0.064635836 0.12143377 0.15564647 0.07766517
0.23935752 -0.2018338 0.20012489 -0.46755987 0.11217091 0.16625312 0.16124766 0.22425075
0.08270673 0.22966012 0.15674569 0.02227654 0.036420908 0.23170684 -0.099983014 0.15223618
0.1403307 0.06518779 0.13843143 0.21508592 -0.003668301 -0.10130583 0.1267006 0.04926289
0.23523502 0.12170053 0.112637974 0.22001949 0.09537058 0.14356174 0.2390076 0.20417237
0.20171781 -0.20431654 -0.15076223 0.15450868 -0.26335755 0.21244694 0.19010417 -0.067472436
-0.09969842 -0.125635 0.18377657 0.25097936 0.11757892 0.10487108 -0.1842115 -0.20427735
0.18213244 0.25686848 0.16318518 0.22756965 0.22867885 0.22970621 0.12502661 -0.106634624
-0.15208068 0.22829697 0.008453026 -0.2631888 -0.23855425 -0.19229662 0.13543496 -0.23224364
-0.23218839 -0.035377067 0.12653494 -0.074050546 0.05894376 -0.25568917 0.19727853 -0.14574073
-0.18811181 0.007033961 -0.01294289 0.033207364 -0.21392797 -0.21026108 0.103211336 -0.1809259
0.017022569 -0.02868545 -0.018697688 0.13308455 -0.041889586 -0.18724547 0.2236416 0.1912068
0.23981558 0.12407123 0.20106909 0.1456494 0.17877595 -0.23189138 0.1125982 0.17124045
0.025228335 0.0195762 0.14537698 0.25496563 0.030062405 0.25202888 -0.00041114312 0.12391455
0.22799945 0.041438285 0.025464607 0.04695331 0.16316088 0.18403552 0.20459695 0.20693396
0.3937997 0.3894328 0.21032652 0.06475592 0.013779976 0.2066287 0.132677 0.10785127
0.06031759 0.09606762 0.17839806 0.02458254 0.20848405 0.004447101 0.07144887 0.18617646
0.074596256 -0.017137052 0.252291 0.22802258 0.15613283 0.04461437 0.054910917 0.1273347
0.18688461 0.07350906 0.056656428 0.105571344 0.23137495 0.19627008 0.093776226 0.24687663
0.050210018 0.07226093 0.11539423 0.03700077 0.07868779 0.25440487 0.19590937 0.27259672
0.026533483 0.14548784 0.19585095 0.2121791 0.08907871 0.1615103 0.04310463 0.075545266

fc.weight f4 [1, 64]
00000000: 4e9e ea3e aca9 f0be 8681 14bf 7c04 ee3e
00000010: 795b 11bf cd74 113f 22c1 dabe 5b50 09bf
00000020: 260d ffbe b500 08bf a5a4 0c3f db63 fd3e
00000030: 321d e33e feac 083f afa6 01bf 4f7b 14bf
00000040: 24e6 083f a429 043f b9cd e83e 8f88 f43e
00000050: 1d61 ff3e fcef 0c3f c036 0a3f ba9c 09bf
00000060: 2e46 0dbf f6f6 053f aa22 f73e 37ba 0abf
00000070: 492a fcbe 6da2 d2be 2851 0b3f 061b dfbe
00000080: 1b05 0ebf 11b1 d7be 0db6 fc3e efac fdbe
00000090: 00bc 0d3f e7ba 0fbf af8d 133f e486 10bf
000000a0: f024 07bf 8630 143f f6c2 0b3f 522f 083f
000000b0: db77 e9be 3833 06bf e9af fdbe 34c9 f3be
000000c0: fff4 113f 4fae eabe e238 0dbf 4247 113f
000000d0: 5a9f f4be 13ea 02bf 4cca ea3e 4487 053f
000000e0: 014a ef3e 4fe9 f53e 76c3 023f 3e99 143f
000000f0: 156e fc3e 1f6b 03bf 890c 103f 9b84 093f
0.45823902 -0.4700445 -0.5801014 0.46487796 -0.567802 0.5681885 -0.42725474 -0.5363824
-0.4981472 -0.5312608 0.5493873 0.49490246 0.44358212 0.53388965 -0.50644964 -0.58000654
0.53476167 0.5162604 0.45469454 0.47760436 0.4987878 0.5505369 0.5398979 -0.5375477
-0.5518521 0.5232996 0.48268634 -0.5419039 -0.4925101 -0.41139546 0.5442071 -0.43575305
-0.5547654 -0.42127278 0.49357644 -0.49546 0.5536499 -0.56144565 0.57638067 -0.56455827
-0.5279074 0.5788654 0.5459436 0.53197205 -0.45599255 -0.52421904 -0.4954827 -0.47614443
0.5701446 -0.45836112 -0.5516492 0.56749356 -0.47777826 -0.5113842 0.45857465 0.52159524
0.46736148 0.48029563 0.510795 0.5804633 0.49302736 -0.5133533 0.5626913 0.53717965
